adversae/vae_training/vanilla/vae_model_20250715_104503.pth (torch, 503494 bytes, 23 tensors)

encoder.conv1.weight f4 [6, 1, 5, 5]
0	0xbeae19bd	-0.34004012
1	0xbeb9148c	-0.3614849
2	0xbe2dc2d2	-0.1696885
3	0xbe585d78	-0.21129405
4	0xbbd94680	-0.0066307187
5	0x3d64f336	0.055896007
6	0xbe608bc1	-0.21928312
7	0x3d2dd8b8	0.042443007
8	0x3c24fd7d	0.010070202
9	0xbc0ca312	-0.008583801
10	0x3dc55dbd	0.0963702
11	0x3defe776	0.117140695
12	0x3e4c08ee	0.19925281
13	0xbe1809b2	-0.14847448
14	0x3ddf7cad	0.10912452
15	0x3e8c331a	0.27382737
16	0x3e7d2582	0.2472134
17	0xbe1f7a3a	-0.1557397
18	0xbe594a9a	-0.21219864
19	0x3e303c29	0.1721045
20	0xbe2627fe	-0.16226193
21	0xbe80cab3	-0.25154647
22	0xbdcd46e2	-0.100232854
23	0x3dfc0138	0.1230492
24	0x3e351583	0.17683987
25	0x3e49812d	0.19678183
26	0x3da976b8	0.08274597
27	0xbc11d78a	-0.008901486
28	0xbea9109e	-0.3302049
29	0xbe25b867	-0.16183625
30	0x3ea0df43	0.31420335
31	0x3dbfe0e1	0.09369064
32	0xbd95c6f6	-0.073133394
33	0xbe77d0ea	-0.24200788
34	0xbec6ec2c	-0.3885206
35	0x3e4f0305	0.20215996
36	0x3debd04e	0.1151434
37	0xbde6df75	-0.1127309
38	0x3e49a2a9	0.19690956
39	0xbd9feea4	-0.07809189
40	0xbcda94b6	-0.026682239
41	0xbd6a86fd	-0.05725764
42	0xbde77acd	-0.11302719
43	0xbe6c6165	-0.23084028
44	0xbe811af2	-0.2521587
45	0x3d1373b4	0.035999015
46	0xbdf74ae5	-0.12074832
47	0xbe6689b2	-0.22513464
48	0xbe36c5d5	-0.17848904
49	0xbea14c80	-0.31503677
50	0xbc2958ee	-0.010336144
51	0x3dc583f1	0.096443065
52	0x3d1e3fbe	0.038635008
53	0x3d30f4c5	0.04320218
54	0x3c2b58ba	0.010458166
55	0x3e30151d	0.17195554
56	0xbdc1bb86	-0.094595954
57	0xbd9f69da	-0.077838615
58	0x3e7768ea	0.24161115
59	0x3e8820d6	0.26587552
60	0xbb83e1e0	-0.004024729
61	0x3e5b1fdb	0.2139887
62	0x3e09108a	0.13385215
63	0x3e008d82	0.12553981
64	0x3ea3b12a	0.31971103
65	0x3dc35f26	0.095396325
66	0xbdb7e861	-0.0897987
67	0xbde2dd3f	-0.110773556
68	0xbe646b4a	-0.22306553
69	0x3bf94f56	0.0076083345
70	0xbeb06413	-0.3445135
71	0xbf062a81	-0.52408606
72	0xbec23f21	-0.3793879
73	0xbe96c8c8	-0.2945006
74	0xbccd9d16	-0.025099318
75	0xbe2260aa	-0.15857187
76	0x3e1180cc	0.14209288
77	0x3c75db35	0.015005876
78	0xbc6947f7	-0.014238349
79	0x3df15645	0.11784033
80	0xbe27543f	-0.16340731
81	0x3e3f8753	0.18703966
82	0xbddde790	-0.10835183
83	0x3e01cfc7	0.12676917
84	0x3deccd71	0.11562622
85	0x39440862	0.0001869514
86	0x3d9ae806	0.07563786
87	0x3e30ab30	0.17252803
88	0x3e8d4b6e	0.2759661
89	0x3d832c71	0.06404961
90	0x3c5fb51b	0.013654019
91	0x3e04357f	0.12911032
92	0x3daed9fb	0.0853767
93	0x3e83a004	0.2570802
94	0xbc955b6d	-0.018232072
95	0xbd0a130e	-0.03370958
96	0xbda66a05	-0.0812569
97	0x3c93bf11	0.018035443
98	0x3daecb31	0.085348494
99	0x3e1472b0	0.14496875
100	0x3bd99efc	0.006641267
101	0x3dca5849	0.0988012
102	0x3e16fd1e	0.14744994
103	0xbdb85726	-0.09000997
104	0xbe281189	-0.16412939
105	0x3dc80730	0.09766996
106	0x3e3e9ba7	0.18614064
107	0xbd786e34	-0.060651973
108	0x3e2d4601	0.16921236
109	0xbdbfb62c	-0.093609184
110	0x3b9d0e2b	0.0047929487
111	0x3e0e4b86	0.13895997
112	0xbe15475e	-0.14578006
113	0x3e11a53f	0.14223193
114	0xbe090a9e	-0.13382956
115	0x3d6dc2f7	0.05804726
116	0xbe085c75	-0.1331652
117	0x3cfea5ec	0.031084977
118	0xbd08b0c6	-0.03337171
119	0x3df0cd38	0.11757892
120	0x3dfbd92a	0.1229728
121	0x3ca46afa	0.020070542
122	0xbcda3c5e	-0.026640113
123	0xbd97c8f6	-0.07411377
124	0xbb9817bb	-0.004641501
125	0xbd73b799	-0.059501264
126	0xbd82b18a	-0.06381519
127	0x3e16cf20	0.1472745
128	0xbe03d214	-0.12873107
129	0xbe2561a6	-0.16150531
130	0xbd0b07b7	-0.033942904
131	0xbd37f196	-0.04490813
132	0xbdc7eaf0	-0.09761608
133	0xbd43f028	-0.047836453
134	0xbd870733	-0.0659317
135	0xbe0518a8	-0.12997687
136	0x3dff832d	0.12476192
137	0x3e16e6c1	0.14736463
138	0xbdbc5af1	-0.09197033
139	0xbd999162	-0.07498433
140	0xbe949248	-0.29017854
141	0xbe429a01	-0.1900406
142	0x3e51b0f6	0.20477661
143	0xbd4823e4	-0.048862353
144	0xbd5cd642	-0.05391527
145	0xbe0a67d9	-0.13516177
146	0xbe274505	-0.16334923
147	0x3e52091e	0.2051129
148	0x3e510185	0.20410736
149	0xbe22593f	-0.15854357

encoder.conv1.bias f4 [6]
0	0x3ad29493	0.0016066007
1	0xbbd86420	-0.0066037327
2	0xbc76d2b7	-0.015064887
3	0xbddfb52b	-0.10923227
4	0xbd8e754a	-0.06955965
5	0x3e5f0cfa	0.21782294

encoder.conv2.weight f4 [16, 6, 5, 5]
0	0xbd8d1421	-0.06888605
1	0xbda84466	-0.08216171
2	0x3d75f3f1	0.060047094
3	0xbdb4b028	-0.08822662
4	0xbd7cf44a	-0.06175641
5	0xbd6810f2	-0.056656785
6	0xbd80e380	-0.06293392
7	0x3c9b8e36	0.01898871
8	0xbb304dfb	-0.0026901949
9	0xbd773d9e	-0.060361497
10	0x3cb387ab	0.021915277
11	0x3d1bf89d	0.038078893
12	0x3d1e42e1	0.038638
13	0x3cdab222	0.026696268
14	0xbc6cef9a	-0.014461422
15	0x3d372ed6	0.0447224
16	0xbd1166f8	-0.03549859
17	0x3d134f09	0.035964046
18	0xbda68e21	-0.08132578
19	0x39379134	0.00017506332
20	0xbdd2af32	-0.10287322
21	0x3cc5631c	0.02409511
22	0xbd78e1e2	-0.060762294
23	0x3d3221e0	0.043489337
24	0xbd1ef471	-0.038807336
25	0xbcb33731	-0.021876903
26	0xbcd9fd79	-0.026610123
27	0xbdd9b1bf	-0.106296055
28	0xbc4ba92b	-0.0124304695
29	0x3cce17a4	0.025157757
30	0xbdd2c81c	-0.10292074
31	0xbc61b790	-0.013776675
32	0x3d0794ec	0.033101007
33	0xbd5d634a	-0.054049768
34	0xbcf855bb	-0.030314317
35	0xbda1a484	-0.07892707
36	0x3c5fcb7a	0.013659352
37	0xbda224bb	-0.07917162
38	0x3db01651	0.085980065
39	0x3d03ae5d	0.032148708
40	0xbd1f6f14	-0.03892429
41	0xbd9c207b	-0.07623383
42	0xbc309868	-0.010778524
43	0xbc29da34	-0.010366965
44	0xbdd13803	-0.102157615
45	0xbdbde288	-0.09271723
46	0xbd9871ec	-0.07443604
47	0xbdca0aa6	-0.09865312
48	0xbdbf306c	-0.093354076
49	0xbd7d015e	-0.061768882
50	0xbce5618a	-0.028000612
51	0x3b2d5dd1	0.0026453624
52	0x3ceed911	0.02915624
53	0x3a7123b7	0.00091987423
54	0xbd98e3ac	-0.074653
55	0xbd857885	-0.06517128
56	0x3cc09542	0.023508672
57	0xba9e16eb	-0.0012061273
58	0xbc532228	-0.012886561
59	0x3d5a1040	0.053238153
60	0x3d64ce21	0.055860642
61	0xbdb39157	-0.08767956
62	0x3d047b8f	0.032344397
63	0x3d07a4fe	0.033116333
64	0xbd825114	-0.06363121
65	0x3cd84910	0.026402026
66	0xbce0af1f	-0.027427254
67	0x3ce36f05	0.0277629
68	0xbc0af140	-0.00848037
69	0xbbc990a7	-0.006151277
70	0xbd881fd5	-0.066466965
71	0xbd72f972	-0.05931992
72	0xbcb9ddfc	-0.022688858
73	0xbd64c9e9	-0.05585662
74	0xbd8d0694	-0.0688602
75	0xbd0a7ddc	-0.033811435
76	0xbdd4840d	-0.10376749
77	0xbcc36e75	-0.023856381
78	0xbd258440	-0.040409327
79	0xbd9021ba	-0.07037683
80	0xbd90d44e	-0.07071744
81	0xbcd68549	-0.026186602
82	0xbd828ff7	-0.06375115
83	0xbdb2d7e3	-0.087325834
84	0xbc94985f	-0.018139062
85	0x3d5657a4	0.052329674
86	0xbd9e880e	-0.07740794
87	0x3a4dd25f	0.0007851477
88	0xbc52bc20	-0.012862235
89	0x3cd2fccb	0.025755307
90	0xbd1cca62	-0.038278945
91	0xbd989f5b	-0.0745227
92	0xbdb35886	-0.08757119
93	0xbd18a3ae	-0.037265472
94	0xbd90b51f	-0.07065796
95	0xbc7608ff	-0.015016793
96	0xbae49211	-0.0017438551
97	0xbdd843cd	-0.10559807
98	0x3d3483b6	0.04407092
99	0xbdaa3dd4	-0.08312574
100	0xbdb2eecd	-0.08736954
101	0xbdc95a29	-0.0983165
102	0x3d767a50	0.06017524
103	0x3ce67725	0.028132984
104	0xbbd1e1b4	-0.0064050797
105	0x3cb7c498	0.02243261
106	0xbdbbd7dd	-0.09172032
107	0x3af929fb	0.0019009704
108	0xbda67e49	-0.08129556
109	0xbde06722	-0.10957171
110	0x3d8e6b64	0.06954077
111	0x3cbcd59a	0.023051072
112	0xbddf4692	-0.10902132
113	0xbcb78d42	-0.022406224
114	0xbd945555	-0.07242838
115	0xbb50e4fb	-0.0031874764
116	0xbd330e63	-0.043714892
117	0xbd9dd8e1	-0.07707382
118	0x3ca3c475	0.019991139
119	0x3c13b2ac	0.009014767
120	0xbda8726b	-0.082249485
121	0xbcb0dcd2	-0.02158967
122	0xbcc00e31	-0.023444267
123	0xbce6164d	-0.028086806
124	0xbdae8617	-0.08521669
125	0xbd6142e9	-0.05499545
126	0xbda6128e	-0.08109008
127	0xbdd114cd	-0.102090456
128	0xbd46f74b	-0.04857568
129	0xbd106755	-0.035254795
130	0xbdb6dbfe	-0.08928679
131	0x3cf3aca6	0.029745411
132	0x3c97deff	0.01853895
133	0x3cda4c86	0.026647817
134	0xbcc34112	-0.023834739
135	0xbdabf656	-0.08396594
136	0xbde32e03	-0.110927604
137	0xbdaa3090	-0.08310044
138	0xbd8f33b8	-0.069922864
139	0xbcb0790f	-0.0215421
140	0xbd246e03	-0.040143978
141	0x3c89b292	0.016808782
142	0xbcc094dc	-0.023508482
143	0x3d322394	0.04349096
144	0xbd2f6a23	-0.04282583
145	0x3d41d9b9	0.047326777
146	0x3d1fd893	0.0390249
147	0xbd0f9b6f	-0.035060342
148	0xbd752ead	-0.059858967
149	0x3c281833	0.010259676
150	0x3e2ec329	0.17066635
151	0x3d9bc02e	0.07605015
152	0xbd06dad9	-0.032923553
153	0x3af3dfad	0.0018606089
154	0xbe3d2de7	-0.18474542
155	0x3cc899f9	0.024487482
156	0x3e406c88	0.18791401
157	0xbc126d0f	-0.008937134
158	0xbe236454	-0.15956241
159	0xbdd52654	-0.10407701
160	0xbe7ad282	-0.24494365
161	0xbdcea278	-0.10089582
162	0xbd96a646	-0.07355933
163	0xbd974a37	-0.07387202
164	0x3c761ad5	0.015021046
165	0xbe09a3a1	-0.13441326
166	0xbd6e15f8	-0.05812642
167	0x3d1deeb2	0.038557716
168	0xbcd01371	-0.025399895
169	0x3cf70c93	0.030157363
170	0x3c0ad3d2	0.008473353
171	0x3d81e9b7	0.06343406
172	0xbd98b946	-0.07457213
173	0xbeaee175	-0.34156385
174	0xbdaccdeb	-0.08437713
175	0xbe235c42	-0.15953162
176	0xbe2033e6	-0.15644798
177	0xbe5f75b8	-0.2182225
178	0xbd1b606a	-0.037933744
179	0xbe79dac5	-0.2439986
180	0x3d802c35	0.06258432
181	0xbd8593f6	-0.06522362
182	0xbe0a032c	-0.13477772
183	0xbe0687c9	-0.13137735
184	0xbe1257b0	-0.14291263
185	0xbd9045d5	-0.070445694
186	0xbdfbcf0d	-0.12295351
187	0xbe1367f8	-0.1439513
188	0x3d04b40d	0.032398272
189	0xbe4c0c64	-0.19926602
190	0xbbc16bad	-0.0059027285
191	0xbdc51c54	-0.09624544
192	0xbc9addee	-0.018904652
193	0x3dc49c8c	0.096001714
194	0xbdb177da	-0.08665438
195	0x3cbd599f	0.023114024
196	0x3c3fe3a2	0.011711987
197	0x3e0396e6	0.12850532
198	0x3d76c4c3	0.06024624
199	0xbe152b4f	-0.14567302
200	0x3e3e8d26	0.18608531
201	0x3da3a3d6	0.079902336
202	0xbd547abc	-0.05187486
203	0x3db18e19	0.08669681
204	0x3d8c1e43	0.068417095
205	0x3d06aa47	0.032877233
206	0x3e34843f	0.17628573
207	0xbe42cdb3	-0.1902378
208	0xbe5cd675	-0.21566184
209	0xbe150528	-0.14552748
210	0x3da447ea	0.08021529
211	0x3e3d73be	0.18501183
212	0xbc3a56d9	-0.011373245
213	0xbd6970a1	-0.056992177
214	0x3cb9bf47	0.022674216
215	0xbe092f99	-0.13397063
216	0xbc538d0b	-0.012912045
217	0x3d9fabc6	0.07796435
218	0x3dd510ae	0.10403572
219	0x3dc6d7ec	0.097091526
220	0x3e0df508	0.13863003
221	0x3d19875f	0.037482616
222	0x3dc5ea21	0.09663797
223	0x3e03f7ed	0.12887545
224	0xbd2e14cd	-0.042500306
225	0x3dd7ec18	0.10543078
226	0x3d93b8ab	0.07212957
227	0x3b3db679	0.0028947874
228	0xbdb8e342	-0.09027721
229	0xbdbd35f4	-0.09238806
230	0x3dc9e8b6	0.09858839
231	0x3e0c3706	0.13692865
232	0x3d8fa7ee	0.07014452
233	0xbdba51c9	-0.090976305
234	0xbd6eea20	-0.058328748
235	0xbdd88cd7	-0.10573738
236	0xbd456c25	-0.048198838
237	0x3dc046e8	0.09388524
238	0x3d0fb597	0.035085287
239	0x3cfdbdb8	0.030974254
240	0xbdcfd68b	-0.10148343
241	0xbd8ff7a1	-0.07029653
242	0x3dd8a114	0.10577598
243	0x3d6ab419	0.05730066
244	0xbd8a6f15	-0.067594685
245	0xbd996128	-0.07489234
246	0xbdefcc5a	-0.11708899
247	0xbe01e3a3	-0.12684493
248	0xbd7ba489	-0.06143621
249	0xbd806b3b	-0.062704526
250	0xbdf82665	-0.12116698
251	0xbb98b19a	-0.0046598436
252	0x3d81e817	0.06343096
253	0x3cc6624d	0.024216795
254	0x3d26da96	0.040735804
255	0x3d81fcae	0.06347023

encoder.conv2.bias f4 [16]
0	0xbd4b9fff	-0.04971313
1	0x3cd7e3ee	0.026353803
2	0x3e33dff4	0.175659
3	0xbc627573	-0.013821947
4	0xbc5204e2	-0.012818547
5	0xbd4cc9c5	-0.04999711
6	0x3dbc01f3	0.09180059
7	0xbdcc706c	-0.0998238
8	0xbd70d68b	-0.058798354
9	0xbdaebf1c	-0.08532545
10	0x3dfa472c	0.12220606
11	0xbc1cf81d	-0.009580639
12	0x3d9b84e3	0.075937055
13	0x3d1393b0	0.036029518
14	0x3e37bb37	0.1794251
15	0xbda5b1e3	-0.0809057

encoder.fc1.weight f4 [120, 400]
0	0x3d3ef1bd	0.04661726
1	0xbd195aef	-0.037440237
2	0x3c9a6ad3	0.018849766
3	0xbcf01fa3	-0.02931196
4	0xba6536cd	-0.00087438227
5	0x3d005555	0.03133138
6	0xbcb35f70	-0.021896094
7	0xbcd7657d	-0.02629351
8	0x3d2b7993	0.04186399
9	0xbd3bd6ba	-0.045859076
10	0xbd0808cd	-0.033211518
11	0x3d23f1f5	0.04002567
12	0xbcc79833	-0.024364566
13	0x3c78d993	0.0151885925
14	0x3c979d57	0.018507643
15	0x3b37c8cd	0.002804327
16	0xbd0293e0	-0.031879306
17	0xbd3a7162	-0.045518287
18	0x3d484d75	0.048901994
19	0xbbf35232	-0.00742557
20	0xbc83ff03	-0.01611281
21	0x3ca0a9cd	0.019612217
22	0x3d34e1ca	0.04416064
23	0xbb95f5f3	-0.0045764386
24	0xbbebfd67	-0.007201839
25	0xbe4d1c78	-0.20030391
26	0xbd9a86f2	-0.0754527
27	0x3d7f362a	0.062307514
28	0x3d2a16de	0.041525714
29	0x3d8ab044	0.06771901
30	0xbde2128a	-0.11038692
31	0xbda9bee5	-0.08288363
32	0x3dac9685	0.08427147
33	0xbe7ae3bf	-0.2450094
34	0xbd30113f	-0.042985197
35	0xbd7967ec	-0.060890123
36	0xbe9ccc30	-0.30624533
37	0x3de212be	0.11038731
38	0xbd987ca9	-0.07445652
39	0xbda2c322	-0.07947375
40	0xbd731853	-0.05934937
41	0xbca1fa3d	-0.019772643
42	0xbbaf8d81	-0.0053574448
43	0xbdc4c23d	-0.096073605
44	0xbdd2f680	-0.103009224
45	0x3cfecc38	0.031103238
46	0xbd7ba4a5	-0.061436314
47	0xbc34283b	-0.01099592
48	0xbe3d3f16	-0.18481097
49	0x3d0348c1	0.032051805
50	0x3cd238f6	0.025661927
51	0x3e0b906e	0.13629314
52	0xbe8125d6	-0.2522418
53	0x3e5e23d0	0.21693349
54	0x3bd1ff2c	0.0064085927
55	0x3d3a26b5	0.04544707
56	0x3e341efb	0.17589943
57	0xbb4f0567	-0.0031588913
58	0xbbd2c7b8	-0.0064324997
59	0x3e4860a6	0.19568118
60	0xbc849f69	-0.016189294
61	0x3ec8539e	0.39126295
62	0xbde68e73	-0.11257639
63	0x3e1e3010	0.15448022
64	0x3d1c0f0c	0.038100287
65	0xbd2fa4fc	-0.04288195
66	0x3e862cac	0.26205957
67	0xbccc7bc2	-0.024961356
68	0x3d8be1a3	0.06830146
69	0x3deb7711	0.114973195
70	0xbcc9a4f5	-0.02461479
71	0x3dd17195	0.10226742
72	0xbd2abaea	-0.04168216
73	0xba996270	-0.001170231
74	0x3da29332	0.079382315
75	0x3de584d5	0.11206976
76	0x3d7a78fa	0.06115053
77	0x3d3c5b26	0.045985363
78	0xbd5c45e5	-0.053777594
79	0x3cba0294	0.022706307
80	0x3de743b1	0.11292208
81	0x3c3139f2	0.010817038
82	0xbd9649f1	-0.07338322
83	0x3d7323b5	0.059360225
84	0x3d2b9e9a	0.0418993
85	0x3e0d9319	0.13825645
86	0x3e05d455	0.1306928
87	0xbd9c284d	-0.07624874
88	0x3d00a4fb	0.031407338
89	0xbd667c9b	-0.056271177
90	0x3e22e29a	0.15906754
91	0xbdaf9485	-0.0857325
92	0x3da72edb	0.08163234
93	0x3c2ccfa9	0.010547557
94	0xbe075219	-0.13214912
95	0x3e391768	0.18075335
96	0xbe04d8f5	-0.12973388
97	0x3e08beb4	0.13353997
98	0xbd2b7408	-0.041858703
99	0xbdafab13	-0.08577552
100	0x3e17947b	0.14802735
101	0x3d6da082	0.0580144
102	0xbb28f83f	-0.0025782732
103	0x3d42bff1	0.04754633
104	0xbce2a432	-0.027666185
105	0x3dff9653	0.12479844
106	0xbdb18101	-0.08667184
107	0x3c2dfe0e	0.010619653
108	0xbd2e6ea6	-0.04258599
109	0xbdfbce58	-0.12295216
110	0x3e284ac4	0.16434771
111	0xbcc290ff	-0.02375078
112	0xbd2e92e3	-0.04262055
113	0xbd72129d	-0.059099782
114	0xbe339510	-0.17537332
115	0x3da1d28d	0.079014875
116	0xbdca95a6	-0.098918244
117	0xbc9edd52	-0.019392643
118	0xbd8f3e9f	-0.06994366
119	0xbe3d7e37	-0.18505178
120	0x3e1fc65c	0.15603012
121	0x3cebe423	0.028795308
122	0xbc5a61c6	-0.013328975
123	0xbde19ae4	-0.11015871
124	0xbdabf282	-0.08395864
125	0xbecab5ab	-0.39591727
126	0xbe2c7d1b	-0.16844599
127	0xbdac94d5	-0.08426825
128	0xbcc4e2d5	-0.024033943
129	0xbe934e36	-0.28770608
130	0xbe9e00c5	-0.30859962
131	0xbd7eb2af	-0.062182125
132	0xbd095169	-0.033524904
133	0xbe8daebb	-0.2767237
134	0xbe6c4ff6	-0.23077378
135	0xbe801fcb	-0.25024256
136	0xbc97594e	-0.018475201
137	0xbc146c39	-0.009059005
138	0xbe4aae31	-0.19793011
139	0xbbe3f8fb	-0.006957171
140	0xbd4d9395	-0.050189573
141	0x3c8f872e	0.017520513
142	0xbd4f7b61	-0.050654773
143	0xbd8ae5b3	-0.06782093
144	0xbc98f9c2	-0.018673781
145	0xbd88ee91	-0.06686128
146	0xbd0f5091	-0.034988943
147	0xbdc339ee	-0.095325336
148	0xbd9be724	-0.07612446
149	0xbdf7ac99	-0.12093467
150	0xbd3f4840	-0.046699762
151	0x3e10e169	0.14148487
152	0x3e51e3f2	0.2049711
153	0x3e129c62	0.14317468
154	0x3df5609d	0.11981318
155	0xbe05de7a	-0.1307315
156	0x3e6c268f	0.23061584
157	0x3e53b379	0.20673932
158	0xbe099cd2	-0.13438728
159	0x3e728680	0.2368412
160	0xbd7cc9ee	-0.061716013
161	0x3e0ed3ef	0.13948034
162	0xbea0b688	-0.3138926
163	0x3c18e028	0.009330787
164	0x3e18709f	0.14886712
165	0xbcea158f	-0.028574733
166	0x3e1e0905	0.15433128
167	0x3baaa34d	0.0052074553
168	0x3eb89e7d	0.36058417
169	0x3dea7ac3	0.11449196
170	0xbd629c99	-0.055325124
171	0x3d7a0a1f	0.06104481
172	0x3ccea504	0.02522517
173	0x3e4d0a21	0.20023395
174	0x3dca88aa	0.09889348
175	0x3ce8007d	0.028320545
176	0xbc894e72	-0.016761038
177	0x3c91ef34	0.017814256
178	0x3c1f1021	0.009708435
179	0x3d1329a5	0.035928387
180	0x3c2225a1	0.009896667
181	0x3dc10742	0.094252124
182	0xba434670	-0.00074491557
183	0xbc2e9d0a	-0.010657558
184	0x3caca164	0.02107305
185	0x3cd9dec7	0.026595486
186	0x3d0f71ea	0.035020746
187	0x3c41f55d	0.011838284
188	0xbd7b0df6	-0.06129261
189	0x3d7ce86b	0.06174509
190	0x3d6e5f9a	0.05819664
191	0x3ce6c1c3	0.028168565
192	0x3d393c1b	0.045223337
193	0xbcfa1af3	-0.030530429
194	0xbd72d12b	-0.05928151
195	0x3d469a6a	0.048487104
196	0xb9d6a800	-0.0004094243
197	0xbda26155	-0.07928721
198	0xbca7ccd5	-0.020483414
199	0xbdb31306	-0.08743863
200	0xbe9c7891	-0.30560735
201	0xbea6ec14	-0.32601988
202	0xbd7eb6b3	-0.062185954
203	0xbe3749f5	-0.17899306
204	0xbe0cfd7b	-0.1376857
205	0xbe737a8b	-0.23777215
206	0xbe48ddef	-0.19615911
207	0xbd955f14	-0.07293525
208	0xbd4eff10	-0.050536215
209	0xbe6247f6	-0.22097763
210	0xbe3567b1	-0.17715336
211	0xbe0607a8	-0.13088858
212	0xbd9895a3	-0.07450416
213	0xbe012fdc	-0.12615913
214	0xbdf5d244	-0.120029956
215	0xbdca5f1b	-0.09881421
216	0xbd5f50ad	-0.054520298
217	0xbda56d5b	-0.080774985
218	0xbe19f5da	-0.15035191
219	0xbd84209e	-0.06451534
220	0xbd537990	-0.051629603
221	0xbcd2e621	-0.0257445
222	0xbd8338a0	-0.06407285
223	0xbe20825a	-0.15674725
224	0x3cb6a36c	0.022294722
225	0xbdb05811	-0.08610547
226	0xbdd41a45	-0.10356573
227	0x3dc38ac6	0.09547953
228	0x3d8b69ea	0.06807311
229	0x3d590bad	0.05298965
230	0xbdd063a8	-0.10175258
231	0xbe0d4013	-0.13793974
232	0x3d6ee92d	0.058327843
233	0xbe288103	-0.16455464
234	0xbc9d9616	-0.019236606
235	0xbe04c760	-0.1296668
236	0xbd524347	-0.051333692
237	0x3d775a8e	0.060389094
238	0xbe16dc84	-0.14732558
239	0xbd94f6e6	-0.07273655
240	0xbd163111	-0.036667887
241	0xbc094e76	-0.008380523
242	0x3d1eebb9	0.03879902
243	0xbba2c50c	-0.0049673375
244	0xbda1ea2e	-0.07905994
245	0xbcd4e75d	-0.025989229
246	0xbd1a177b	-0.03762005
247	0xbbad33cd	-0.005285716
248	0xbdfa0b00	-0.12209129
249	0xbd86c6a2	-0.06580855
250	0xbd179843	-0.037010442
251	0x3e1157f8	0.14193714
252	0xbe41516e	-0.18878719
253	0x3e1d1a1f	0.15341996
254	0x3ce5610e	0.02800038
255	0xbdb28547	-0.08716827

encoder.fc1.bias f4 [120]
0	0x3cf98b58	0.030461952
1	0xbd05b00c	-0.032638595
2	0x3db44fef	0.088043086
3	0xbd49cef7	-0.049269643
4	0xbb4e377d	-0.003146618
5	0x3dc80067	0.09765702
6	0x3c218a14	0.009859581
7	0x3cb1fab8	0.021725997
8	0x3c423b18	0.011854909
9	0x3b5f94a5	0.0034115699
10	0xbc2c1b54	-0.010504562
11	0xbd880e01	-0.06643296
12	0xbc3be4ac	-0.011468094
13	0xbd4a981c	-0.04946147
14	0xbd6e1f5b	-0.05813537
15	0xbbd1a8c2	-0.0063982913
16	0x3d1742b8	0.036928862
17	0xbd1b5bab	-0.03792922
18	0xbcbed5b3	-0.02329526
19	0x3d08e18c	0.033418223
20	0xbd8dda96	-0.069264576
21	0x3da20bb7	0.07912391
22	0x3b3c0d70	0.0028694533
23	0x3dc44bbb	0.09584757
24	0xbd7db49b	-0.061939817
25	0x3e429cc5	0.19005115
26	0xbcfdbb77	-0.03097318
27	0xbb7f7ba4	-0.0038983608
28	0xbdb394e5	-0.08768634
29	0xbd6c0504	-0.05762197
30	0x3e3a46b8	0.1819104
31	0x3c0bca7b	0.008532162
32	0x3cd9be3e	0.026579972
33	0x3e04dd38	0.12975013
34	0xbcdab1da	-0.026696134
35	0x3cc78b52	0.024358425
36	0xbda3c39f	-0.07996296
37	0xbd61715b	-0.055039745
38	0x3dbcd6b9	0.092206426
39	0xbc7aa1cd	-0.015297365
40	0xbd7aae0e	-0.061201148
41	0x3c991d67	0.018690778
42	0xbd85b12d	-0.06527934
43	0xbd330034	-0.043701366
44	0x3d0736c1	0.0330112
45	0x3c4625b1	0.012093947
46	0x3b9dcfed	0.0048160465
47	0xbc2cfce7	-0.0105583435
48	0x3e3ffee8	0.18749583
49	0xbd1045e8	-0.035222918
50	0xbd367540	-0.044545412
51	0xbd47b368	-0.04875508
52	0x3c91be01	0.017790796
53	0x3c30a3fe	0.010781286
54	0xbcceb31a	-0.025231887
55	0xbd571542	-0.052510507
56	0xbcb87af5	-0.022519568
57	0xbca85f80	-0.02055335
58	0xbbd4b795	-0.0064916112
59	0x3cc45f4b	0.02397122
60	0xbc4a849c	-0.012360718
61	0xbd9535b4	-0.07285634
62	0x3cb328f6	0.021870118
63	0x3bec2dac	0.007207593
64	0xbd3e83b4	-0.04651232
65	0xbce11f51	-0.027480753
66	0xbd7eca4e	-0.06220465
67	0xbd3112c7	-0.043230798
68	0x3ca759bf	0.020428536
69	0xbda4dcd2	-0.08049931
70	0x3bbaccf1	0.0057007005
71	0xbd4dc190	-0.050233424
72	0xbcc8550f	-0.024454622
73	0xbcbabd09	-0.022795217
74	0x3dde71ae	0.108615264
75	0x3da3d280	0.07999134
76	0xbd371a07	-0.044702556
77	0xbd0dbd98	-0.03460464
78	0xbcd0e353	-0.025499022
79	0xbda79e58	-0.081844985
80	0xbd2f0427	-0.04272857
81	0x3d44fb2e	0.048091106
82	0x3ccddae6	0.025128793
83	0x3d88059f	0.06641697
84	0x3cfc1ac1	0.030774476
85	0x3a2df4de	0.00066359143
86	0xbd8f245c	-0.06989357
87	0x3e325be3	0.17417865
88	0x3caf9a20	0.021435797
89	0xbcdeaa1a	-0.02718072
90	0xbc3b3c59	-0.011427962
91	0x3e601f31	0.21886899
92	0x3b874eea	0.0041292803
93	0xbda55e32	-0.08074607
94	0xbd96f2f6	-0.0737056
95	0xbcb4f77c	-0.022090666
96	0xba201914	-0.00061072526
97	0x3cc24ce3	0.023718303
98	0xbbc3828a	-0.005966489
99	0xbcb347d3	-0.021884834
100	0x3ae31f55	0.0017328063
101	0x3dbaf4ee	0.09128748
102	0xbdb6d83b	-0.089279614
103	0xbd7a231e	-0.061068647
104	0xbd684564	-0.0567068
105	0xbc43b05a	-0.011943901
106	0xbb3ce811	-0.0028824846
107	0x3dda84a2	0.10669829
108	0xbd171fe8	-0.036895663
109	0xbd1a5d05	-0.037686367
110	0xbc281ac5	-0.010260289
111	0xbd6d1889	-0.057884727
112	0xbd9b5b3b	-0.0758576
113	0xbd508ba8	-0.050914437
114	0xbd961de9	-0.07329924
115	0xbcbf0aab	-0.023320517
116	0xbcb0315c	-0.021507911
117	0xbd4f6323	-0.050631654
118	0x3c62e3f7	0.013848296
119	0x3d2c2859	0.042030666

encoder.fc2.weight f4 [84, 120]
0	0xbdc2235e	-0.09479402
1	0x3d75e243	0.060030233
2	0x3d0a8c38	0.03382513
3	0xba540176	-0.0008087376
4	0x3d8f15a5	0.0698655
5	0xbe097681	-0.13424112
6	0x3ccf5525	0.025309155
7	0x3da336a8	0.07969409
8	0x3c91670f	0.017749337
9	0x3d3e563b	0.046468955
10	0xbdaa593c	-0.08317801
11	0xbc76f057	-0.01507195
12	0x3d03a574	0.03214021
13	0x3c937cc9	0.018003838
14	0x3d7073c1	0.05870414
15	0xbdcc749b	-0.09983178
16	0x3d8e2516	0.06940667
17	0x3d89c0d8	0.06726235
18	0xbd8cc5c1	-0.06873656
19	0xbd6f2976	-0.05838915
20	0x3c9a1ff4	0.018814065
21	0xbc432c19	-0.011912369
22	0x3cf49d5c	0.029860191
23	0xbd181ec4	-0.037138715
24	0x3b09d45c	0.0021031117
25	0xbdb69c1e	-0.08916496
26	0xbdb7459a	-0.08948822
27	0x3d9977f5	0.07493583
28	0x3d939d25	0.07207707
29	0xbcd574cc	-0.02605667
30	0xbd859b26	-0.06523733
31	0xbccac088	-0.02475001
32	0xbd7c08a7	-0.06153169
33	0xbd8c2032	-0.06842078
34	0xbd581a82	-0.052759655
35	0xbd0fcc0f	-0.035106715
36	0x3d85bb8f	0.065299146
37	0x3d09ad81	0.03361273
38	0x3cc4a37c	0.024003737
39	0x3d579670	0.052633703
40	0x3ccdfd91	0.025145324
41	0xbe188b0c	-0.14896792
42	0xbdbf1061	-0.09329296
43	0xbc823fd2	-0.015899573
44	0x38692c8d	5.559302e-05
45	0xbde1beb7	-0.11022704
46	0xbd702612	-0.058630057
47	0x3cbef0dd	0.023308212
48	0xbdbe4fcb	-0.09292563
49	0xbda80712	-0.082044736
50	0x3d07b3e8	0.033130556
51	0xbc6968e7	-0.014246202
52	0x3da1cb11	0.0790006
53	0xbdce7ed7	-0.100827865
54	0x3c8d6cd1	0.017263802
55	0xbb15e7ff	-0.0022873876
56	0x3d9b9535	0.07596818
57	0xbd4553f6	-0.048175775
58	0x3d8f7d89	0.07006366
59	0xbd6cc9e2	-0.057809718
60	0xbd9728ff	-0.07380866
61	0xbd76e5ca	-0.060277738
62	0x3cf412f0	0.029794186
63	0x3d922c1c	0.071373194
64	0x3d8762cf	0.06610643
65	0xbd9a5943	-0.075365566
66	0x3d055dfd	0.032560337
67	0xbc62b76b	-0.013837676
68	0x3cf4c86c	0.029880725
69	0xbd64eca6	-0.055889748
70	0xbd716c7d	-0.058941353
71	0x3c1d8379	0.009613865
72	0x3d7af513	0.061268877
73	0xbdbec753	-0.09315362
74	0x3bf2b689	0.007407014
75	0xbd2a14f5	-0.041523892
76	0xbdce5fc8	-0.100768626
77	0xbc99c1d2	-0.018769179
78	0xbc49d3c0	-0.012318552
79	0xbc7c5a81	-0.015402437
80	0xbd89ebab	-0.06734403
81	0xbe1287dc	-0.14309639
82	0x3d3591ad	0.04432838
83	0xbde2f078	-0.11081022
84	0xbd443c1d	-0.04790889
85	0x3ccfd913	0.025372064
86	0x3c8cba3b	0.017178645
87	0x3c428c56	0.011874279
88	0x3c89d66a	0.016825873
89	0x3c087578	0.008328788
90	0xbda5e3c9	-0.08100087
91	0xbd2ff489	-0.042957816
92	0xbcfd1dc2	-0.030897979
93	0xbccf8c96	-0.025335591
94	0xbd533da8	-0.05157247
95	0x3da4ef05	0.08053402
96	0xbd54bb4c	-0.051936433
97	0xbd00560e	-0.03133207
98	0x3d60d76b	0.05489294
99	0xbc036cf3	-0.008021581
100	0xbe06bcbd	-0.13157935
101	0xbd8fe0fc	-0.07025334
102	0xbd638198	-0.055543512
103	0x3d7e6526	0.06210818
104	0xbcc52b48	-0.02406849
105	0x3da02fa0	0.07821584
106	0x3d817c59	0.063225456
107	0xbc85a0fb	-0.016312113
108	0x3bc6228a	0.006046598
109	0x3d316352	0.04330761
110	0xbd087eb0	-0.033323944
111	0x3d1404a9	0.036137257
112	0x3d1b1259	0.037859295
113	0xbde028ca	-0.1094528
114	0x3da3a413	0.07990279
115	0x3d61453b	0.054997664
116	0xbda5f05b	-0.08102485
117	0xbd2d782b	-0.04235093
118	0x3c7b9fea	0.015357951
119	0x3d5f6818	0.05454263
120	0x3d119e1d	0.03555118
121	0xbd9cc6e7	-0.07655125
122	0x3e14c152	0.14526871
123	0xbc683fc1	-0.014175356
124	0xbc8d1726	-0.017222952
125	0x3d09579c	0.033530816
126	0x3b96adfb	0.004598377
127	0x3db1f576	0.08689396
128	0x3d199828	0.037498623
129	0xbeebc0a1	-0.46045402
130	0xbd2d5721	-0.04231942
131	0x3d15e6f2	0.0365972
132	0x3cc0a021	0.023513855
133	0xbdafac3e	-0.085777745
134	0x3d46e889	0.048561607
135	0x3dbee12d	0.093202926
136	0xbb896ecb	-0.0041941158
137	0xbcbdba34	-0.023160078
138	0xbfa3dcef	-1.2801799
139	0xbd63b1ab	-0.05558936
140	0xbd943a8e	-0.07237731
141	0xbcf32a31	-0.029683204
142	0xbda724f9	-0.08161349
143	0xbcc8c437	-0.024507625
144	0xbd94516a	-0.07242091
145	0x3d6d2198	0.057893366
146	0xbdb78306	-0.089605376
147	0xbd13147e	-0.035908215
148	0xbde847fb	-0.11341854
149	0xbc9906fc	-0.018680088
150	0xbd7b0ab9	-0.061289523
151	0x3d2fd9ee	0.042932443
152	0x3daf4618	0.08558291
153	0x3d2291ab	0.0396897
154	0xbd83e481	-0.06440068
155	0xbc4a4fc6	-0.012348121
156	0x3c0c7fdf	0.008575409
157	0xbcb02cf5	-0.021505812
158	0xbd623f5c	-0.055236205
159	0x3d66aa74	0.0563149
160	0xbda9a2e0	-0.08283019
161	0x3dc5106c	0.09622273
162	0x3d88737a	0.066626504
163	0x3d2267d2	0.039649792
164	0x3e436634	0.19081956
165	0xbeb77fbc	-0.3583964
166	0x3d7447d7	0.059638824
167	0x3cfccc18	0.030859038
168	0xbb935f2e	-0.0044974303
169	0x3ca2b1e2	0.019860212
170	0xbd6bad70	-0.05753845
171	0x3d263a87	0.04058316
172	0xbdbc464e	-0.09193097
173	0x3e0c6d59	0.13713588
174	0x3dbde02d	0.09271274
175	0x3d8d7084	0.06906226
176	0xbc5d6c14	-0.013514537
177	0xbd9829ec	-0.07429871
178	0x3d8a8c06	0.067649886
179	0x3d8c8e11	0.068630345
180	0xbf21e9b4	-0.6324723
181	0xbd41915b	-0.047257762
182	0xbcf8dc1f	-0.0303784
183	0x3d8cdd94	0.068782
184	0x3cfed3d4	0.031106867
185	0x3dfc11f2	0.1230811
186	0x3d376fd1	0.04478437
187	0x3d11d2a0	0.03560126
188	0xbdfd7e00	-0.12377548
189	0x3d1e8701	0.03870297
190	0xbd8fe752	-0.07026543
191	0xbc1e9c21	-0.009680779
192	0x3d8754f6	0.06608002
193	0xbd07ef61	-0.033187274
194	0xbcdeac04	-0.027181633
195	0xbcd36b8b	-0.025808116
196	0xbf1d654d	-0.614827
197	0xbd9e3991	-0.07725824
198	0xbc7bdbcc	-0.015372228
199	0xbd0d4bb9	-0.034496043
200	0x3c508343	0.012726608
201	0x3d1ae266	0.037813567
202	0xbc15bc0a	-0.00913907
203	0x3d6d97e6	0.05800619
204	0x3d989697	0.07450598
205	0xbcd166b8	-0.025561675
206	0x3cd719a1	0.026257338
207	0x3df3f559	0.11912031
208	0x3cc31d64	0.023817725
209	0x3d26a2f0	0.040682733
210	0x3d841a1b	0.06450292
211	0x3d26ade0	0.040693164
212	0xbd7d973b	-0.061911803
213	0x3d6d90fe	0.057999603
214	0x3d3e58bc	0.046471342
215	0xbd03f6d6	-0.032217823
216	0x3d2ec572	0.042668767
217	0x3d6d3566	0.057912253
218	0xbd93e491	-0.0722133
219	0xbda71e05	-0.08160023
220	0xbd27e1b5	-0.040986735
221	0x3e084c12	0.13310269
222	0xbc6316fb	-0.013860459
223	0x3c455a34	0.012045432
224	0x3d6d5886	0.05794575
225	0x3d2c08d0	0.04200059
226	0xbda0ce44	-0.07851842
227	0x3d443619	0.047903154
228	0x3d384718	0.044989675
229	0xbe8555be	-0.2604198
230	0xbd31b7cd	-0.043388177
231	0x3df13a77	0.117787294
232	0xbcd32856	-0.02577607
233	0x3d47c6e0	0.048773646
234	0x3d007994	0.031365946
235	0x3d8255d1	0.063640244
236	0x3d32400a	0.043518104
237	0xbf5f2f01	-0.871811
238	0x3bcf4963	0.006325887
239	0x3d9a3a81	0.0753069
240	0x3cf7b273	0.030236458
241	0x3d741b5a	0.059596397
242	0xbdb6f5ab	-0.08933576
243	0x3c7db300	0.015484571
244	0xbd48c77f	-0.04901838
245	0x3c894cbc	0.016760223
246	0xbdb27d72	-0.08715333
247	0xbd38b2c1	-0.045092348
248	0xbde2c33c	-0.11072394
249	0xbefb3870	-0.49066496
250	0xbd0fbe5a	-0.035093643
251	0x3d3b6faa	0.045760788
252	0x3d8d2302	0.06891443
253	0xbd45a230	-0.048250377
254	0x3d742934	0.059609607
255	0xbd4b6b53	-0.0496629

encoder.fc2.bias f4 [84]
0	0xbdbbea83	-0.09175589
1	0x3dce3e3f	0.10070466
2	0x3e335018	0.17511022
3	0x3c45a987	0.012064344
4	0xbd838a39	-0.06422848
5	0xbdc2cfc7	-0.09512287
6	0x3da470fd	0.08029363
7	0xbd896a1a	-0.067096904
8	0xba3ca03f	-0.00071955094
9	0x3df82f5e	0.121184096
10	0x3da66a40	0.08125734
11	0xbd33ad25	-0.043866295
12	0xbdbe74fc	-0.09299657
13	0x3d6286e9	0.05530444
14	0x3e1596ef	0.14608358
15	0x3d341f49	0.04397515
16	0x3d380493	0.044926237
17	0xbda8ad00	-0.08236122
18	0x3d32b28a	0.0436273
19	0x3e07b96a	0.13254324
20	0xbc0ab645	-0.008466308
21	0x3db83c9a	0.08995934
22	0x3e124ce7	0.14287148
23	0xbd1120ed	-0.03543179
24	0xbdee24d3	-0.116281174
25	0xbd1ac896	-0.03778895
26	0xbb13a3f1	-0.0022528137
27	0xbd722c33	-0.059124183
28	0x3df4e019	0.11956806
29	0xbcf6be1a	-0.030119944
30	0xbb280544	-0.0025637904
31	0xbcd6f023	-0.026237553
32	0x3dd47677	0.10374158
33	0x3d65236d	0.055941988
34	0xbd6eebb3	-0.05833025
35	0x3d075e07	0.033048656
36	0x3d31a2df	0.043368217
37	0xbe4d5d85	-0.20055206
38	0xbe11ba5f	-0.14231251
39	0xbbda9659	-0.006670755
40	0x3e674d9c	0.225882
41	0xbddd0da3	-0.107936166
42	0xbe094999	-0.13406982
43	0x3eab8919	0.33503035
44	0xbdcce813	-0.10005202
45	0x3e308f3c	0.1724214
46	0x3de3e0b2	0.111268416
47	0xbd6d1e04	-0.057889953
48	0xbd7c3fef	-0.06158441
49	0x3df51bfb	0.119682275
50	0xbcffdfd5	-0.031234661
51	0x3d2f023c	0.04272674
52	0x3d7349bc	0.05939649
53	0xbc2dae43	-0.010600629
54	0xbe5c1a9f	-0.2149453
55	0x3d99a3b8	0.0750193
56	0x3caada00	0.020855904
57	0x3e4c6500	0.19960403
58	0x3e833df2	0.25633198
59	0xbc3e1b89	-0.011603245
60	0xbdcdc711	-0.100477345
61	0x3e4437ea	0.19161955
62	0xbce9d6ce	-0.02854481
63	0xbd14ec6a	-0.036358275
64	0xbc4e5812	-0.01259424
65	0xbc90b398	-0.017663762
66	0xbdb7c672	-0.08973397
67	0xbd0310e5	-0.031998534
68	0xbd2e0a1d	-0.042490114
69	0x3bf41ea3	0.0074499412
70	0x3ca0895d	0.01959675
71	0x3d61ef98	0.055160135
72	0x3d0b1744	0.033957735
73	0x3c1a8342	0.009430708
74	0x3bb25fe7	0.0054435614
75	0x3c38ed29	0.011287012
76	0xbe56e3b8	-0.20985305
77	0xbd84171f	-0.064497225
78	0xbd87b89f	-0.066270106
79	0xbdcaa539	-0.09894795
80	0x3e186073	0.14880542
81	0x3d67ccbf	0.056591745
82	0xbd326840	-0.04355645
83	0xbcaf98e2	-0.021435205

encoder.fc_mu.weight f4 [2, 84]
0	0x3b6f680f	0.003653053
1	0x3d85818e	0.06518851
2	0x3df8e150	0.1215235
3	0x3c951f0b	0.018203279
4	0xbd14bccc	-0.036312863
5	0x3da8d4ad	0.0824369
6	0xbe676cfc	-0.22600168
7	0x3d2a4f9b	0.041579824
8	0xbeb06a12	-0.34455925
9	0x3dc7993f	0.09746026
10	0x3e98d218	0.2984779
11	0xbd3c6913	-0.045998644
12	0x3d994b74	0.07485095
13	0x3deda26f	0.116032474
14	0xbcac22b7	-0.021012647
15	0xbce413df	-0.027841507
16	0x3deda0aa	0.1160291
17	0x3d3964f4	0.045262292
18	0x3d595a96	0.053064905
19	0x3e4ba814	0.19888335
20	0xbd010bb5	-0.031505305
21	0xbbee930b	-0.0072807125
22	0x3e241995	0.16025384
23	0xbcc56996	-0.024098199
24	0xbdc2932c	-0.09500727
25	0x3d3c3d7e	0.04595708
26	0x3e6491de	0.22321269
27	0x3d26b6ae	0.04070156
28	0xbdc13c4f	-0.09435331
29	0xbd6d6720	-0.057959676
30	0xbca4db7a	-0.020124186
31	0xbc110555	-0.008851369
32	0x3e393fcc	0.18090743
33	0xbddf7abd	-0.10912082
34	0xbdc45db6	-0.095881864
35	0x3d8ac491	0.06775773
36	0x3dc19f6f	0.09454238
37	0x3db20823	0.08692958
38	0x3e0afae6	0.13572273
39	0x3d6581a7	0.05603185
40	0x3c885bef	0.0166454
41	0x3cb800fc	0.022461407
42	0x3ea2428a	0.3169139
43	0x3ea717c0	0.32635307
44	0x3d339666	0.043844603
45	0x3e50dcbc	0.20396703
46	0xbdd401bf	-0.103518955
47	0xbcb826e4	-0.022479482
48	0xbb9bb755	-0.0047520795
49	0xbe681b4f	-0.22666667
50	0x3bb8a9ac	0.005635461
51	0xbc9781b2	-0.01849446
52	0x3cd54ccb	0.026037594
53	0x3ca3586f	0.01993963
54	0x3e72a303	0.23694997
55	0x3ee27405	0.4422914
56	0xbe2ea93a	-0.17056742
57	0xbe647b53	-0.2231267
58	0xbd777b5e	-0.060420386
59	0x3c68fa4f	0.0142198345
60	0xbc668129	-0.01406888
61	0xbdcd2893	-0.100175045
62	0xbc7e49ea	-0.015520552
63	0x3d6bbd76	0.05755373
64	0xbdd97400	-0.10617828
65	0xbda8b10a	-0.082368925
66	0x3cd7b8a5	0.026333163
67	0x3ca226ae	0.019793835
68	0xbe873c0c	-0.26413
69	0xbd006788	-0.031348735
70	0xbdad0f50	-0.08450186
71	0x3ddfac5d	0.109215476
72	0x3dde2733	0.108473204
73	0xbe983218	-0.29725718
74	0xbe2122fd	-0.15736003
75	0x3db9f977	0.09080785
76	0xbe42eda3	-0.19035964
77	0xbd34061e	-0.043951146
78	0xbd93b607	-0.07212453
79	0xbc5882c3	-0.01321477
80	0xbdec310e	-0.11532794
81	0xbdab3936	-0.083605215
82	0xbd778f7e	-0.06043958
83	0x3d085643	0.03328539
84	0xbb79bae3	-0.0038105778
85	0x3e3a1f61	0.18176033
86	0x3e3c8396	0.18409571
87	0x3b6b98cb	0.0035949226
88	0x3ce50b26	0.027959418
89	0xbdc09160	-0.09402728
90	0xbd682a56	-0.056681
91	0x3d4de88e	0.05027061
92	0xbd9578bc	-0.07298419
93	0x3e09c2e3	0.1345325
94	0xbdb9958e	-0.090617284
95	0xbceee8ae	-0.029163685
96	0x3d3210e2	0.043473132
97	0xbe4ce9d4	-0.20011073
98	0xbe06cb96	-0.131636
99	0x3ce824cd	0.02833786
100	0xbd63f676	-0.055654965
101	0x3ca1fe4b	0.019774577
102	0xbd6ba9ef	-0.05753511
103	0x3f323cca	0.69624007
104	0x3d53f1d3	0.051744293
105	0xbd5cb740	-0.0538857
106	0xbd9caef5	-0.07650558
107	0xbc43a659	-0.011941516
108	0x3d94f54c	0.07273349
109	0x3c9c11ee	0.019051518
110	0xbd00aff2	-0.031417795
111	0xbe0244aa	-0.12721506
112	0x3e5042b8	0.20337951
113	0xbd583e29	-0.052793656
114	0xbdaf28d6	-0.08552711
115	0x3ce4c2b8	0.02792488
116	0x3e450de8	0.19243586
117	0xbc693ba5	-0.014235412
118	0xbc63826b	-0.013886075
119	0xbd7c2bea	-0.061565317
120	0xbd6c36d5	-0.05766948
121	0x3e3423cd	0.17591782
122	0x3e0ca0e7	0.13733254
123	0xbd9eefef	-0.077606075
124	0x3dc8c18c	0.09802541
125	0xbd9d4268	-0.076786816
126	0xbd0d020d	-0.034425784
127	0x3f03b9f9	0.51455647
128	0xbdd57f6a	-0.10424693
129	0x3ddd5690	0.10807526
130	0xbca625e4	-0.02028174
131	0xbd8f4dbc	-0.069972485
132	0xbd418dcb	-0.047254365
133	0x3ddc147d	0.10746095
134	0x3d3aa460	0.045566916
135	0xbcd5cf03	-0.026099687
136	0xbe070bef	-0.13188146
137	0xbb3fa84b	-0.0029244598
138	0x3b1bff5c	0.002380333
139	0x3d55f1cd	0.052232552
140	0xbd1b53d5	-0.037921745
141	0x3e89536b	0.26821455
142	0x3d01d0aa	0.03169314
143	0xbd8a7a1b	-0.06761571
144	0xbcccafd4	-0.024986185
145	0xbc920cab	-0.017828306
146	0x3d85b5ae	0.06528793
147	0xbce4e723	-0.027942246
148	0xbc724eed	-0.014789325
149	0xbd0b11e0	-0.033952594
150	0xbe333826	-0.17501888
151	0x3d80e7aa	0.062941864
152	0xbd12480d	-0.035713244
153	0x3d6b4015	0.05743416
154	0x3d265de9	0.040616903
155	0xbdcbc85c	-0.09950325
156	0xbd7bdf2d	-0.061492134
157	0x3d05d3fb	0.032672863
158	0x3ce36523	0.027758187
159	0xbd9b4b90	-0.07582772
160	0xbeaefd5f	-0.34177682
161	0x3c936174	0.017990805
162	0x3d269ac9	0.04067496
163	0xbc3adc7f	-0.011405109
164	0x3d5da779	0.054114792
165	0x3c71a56e	0.014748914
166	0xba32db3e	-0.0006822831
167	0xbc34dfc5	-0.011039679

encoder.fc_mu.bias f4 [2]
0	0xbda25ed5	-0.07928244
1	0xbd03bfa6	-0.032165192

encoder.fc_logvar.weight f4 [2, 84]
0	0xbd9d5454	-0.076821
1	0xbde48f8f	-0.11160194
2	0xbd74aacc	-0.059733197
3	0xbdd63835	-0.104599394
4	0xbd3fd0fa	-0.046830155
5	0xbd2aa19d	-0.041658033
6	0xbdcff12a	-0.1015342
7	0x3b90119e	0.0043966314
8	0x3e391a6c	0.18076485
9	0xbdcb19a7	-0.09917002
10	0x3e2e5e4d	0.1702816
11	0x3d59b5ec	0.05315201
12	0x3d3b1497	0.045673933
13	0xbe081d3b	-0.132924
14	0xbd0fefdb	-0.035140853
15	0xbd3e2326	-0.04642024
16	0xbe4643a0	-0.19361734
17	0x3c80d2dc	0.015725546
18	0xbcd6a079	-0.026199566
19	0x3e4f6e29	0.20256867
20	0x3dd8e502	0.10590555
21	0x3dc229be	0.09480618
22	0x3e066533	0.13124542
23	0x3da4dc7c	0.080498666
24	0x3d39f18c	0.045396373
25	0x3d9bb3b4	0.07602635
26	0xbf2547c3	-0.64562625
27	0x3c335fb0	0.010948107
28	0xbe47b6b1	-0.19503285
29	0xbd768208	-0.0601826
30	0xbd43ad56	-0.047772728
31	0xbd6a4166	-0.057191275
32	0x3c11a874	0.00889026
33	0x3e6124de	0.2198672
34	0x3d6f9d5e	0.058499686
35	0x3e84454f	0.25834128
36	0xbe56f122	-0.20990422
37	0xbe784bea	-0.24247709
38	0x3e8f1042	0.2794209
39	0x3d0303da	0.031986095
40	0xbe567e23	-0.20946555
41	0xb9b30db2	-0.00034151744
42	0xbe6a14b6	-0.22859463
43	0x3e09efb7	0.1347035
44	0xbd1ca5a3	-0.0382439
45	0x3e1a46ff	0.15066145
46	0xbe9697c5	-0.29412666
47	0xbd1d8679	-0.03845832
48	0xbc65bc36	-0.014021924
49	0x3d27bb0a	0.04094986
50	0x3c05eac8	0.008173652
51	0xbda52cc3	-0.08065178
52	0xbdc219f3	-0.09477606
53	0x3e2df978	0.16989696
54	0x3e6dd7f9	0.23226918
55	0xbd3d88b2	-0.04627294
56	0x3d98e57c	0.07465646
57	0x3e0aeda3	0.13567214
58	0xbebdabbb	-0.37045082
59	0x3dbe2cbb	0.092858754
60	0xba5f8c52	-0.0008527684
61	0xbed2caf0	-0.41170454
62	0xbd110037	-0.035400596
63	0xbd9f6c4b	-0.07784327
64	0x3b0fe883	0.0021958656
65	0x3e068227	0.13135587
66	0x3b5249bd	0.0032087408
67	0xbcf8a7a5	-0.030353377
68	0x3cac747a	0.021051634
69	0xbc16f2fe	-0.009213207
70	0x3ca85c2c	0.020551763
71	0xbcbe248c	-0.023210786
72	0xbe3186a1	-0.17336513
73	0xbd8fab4f	-0.070150964
74	0x3e9cb0b2	0.30603558
75	0xbdc779f3	-0.09740057
76	0x3e63c0c7	0.22241507
77	0x3cce195e	0.02515858
78	0xbd25c420	-0.040470243
79	0x3d8dbb18	0.06920451
80	0xbef6dfae	-0.4821753
81	0x3d3ed787	0.04659226
82	0xbd86802e	-0.06567417
83	0xba9e8922	-0.0012095312
84	0xbd871d79	-0.06597418
85	0x3d8fdeb4	0.07024899
86	0xbd9de89b	-0.077103816
87	0x3b3c3516	0.0028718165
88	0x3db82f44	0.0899339
89	0xbd939730	-0.07206571
90	0x3de261eb	0.110538326
91	0xbb83dfaa	-0.0040244656
92	0xbc3b6171	-0.011436806
93	0xbead99dd	-0.3390645
94	0xbdb734c5	-0.08945612
95	0xbd92af08	-0.07162291
96	0x3e00d511	0.12581278
97	0xbe70b4b9	-0.2350644
98	0xbd9e2579	-0.07721991
99	0x3d9adf1e	0.075620875
100	0xbe3fce03	-0.18730931
101	0x3deb8804	0.11500552
102	0xbd072421	-0.03299344
103	0x3f11a344	0.5688975
104	0xbd816510	-0.06318104
105	0x3ed03488	0.40665078
106	0xbe2ff9ec	-0.17185181
107	0x3dee6094	0.116395146
108	0xbc1805c4	-0.009278718
109	0x3da94914	0.08265892
110	0xbf238774	-0.6387856
111	0x3cc49483	0.023996597
112	0xbdd7b3ee	-0.10532366
113	0x3d82ca2d	0.06386218
114	0xbc211b2a	-0.009833137
115	0x3cb4afef	0.022056548
116	0xbea45f74	-0.32104075
117	0x3da3fb59	0.08006925
118	0x3d9c0ffc	0.07620236
119	0xbcb3e3cf	-0.021959214
120	0xbe0527e3	-0.13003497
121	0xbdd29a4c	-0.10283336
122	0x3de224b8	0.1104216
123	0xbc020e5e	-0.007937996
124	0xbe253d18	-0.16136587
125	0x3da85d08	0.08220869
126	0x3e1bd2e8	0.15217173
127	0x3e689586	0.22713289
128	0x3cadbc9e	0.021208104
129	0x3cc70965	0.024296472
130	0xbeb6fd70	-0.35740232
131	0x3d6a8943	0.05725981
132	0x3de55597	0.111979656
133	0x3e3910ef	0.18072866
134	0xbdd38d24	-0.10329655
135	0x3d966ae4	0.073446065
136	0xbe12a573	-0.14320926
137	0xbdf8b8f4	-0.12144652
138	0x3e5b11a8	0.21393454
139	0x3e8acd03	0.27109537
140	0xbce74bff	-0.02823448
141	0x3e31a39f	0.17347573
142	0xbedd8153	-0.4326273
143	0xbca92e00	-0.020651817
144	0x3d02eb8a	0.03196291
145	0xbefc7ec9	-0.4931548
146	0xbdc495d7	-0.09598892
147	0x3d5c9404	0.053852096
148	0xbc5bddd6	-0.013419589
149	0x3ca33b6c	0.019925795
150	0x3ed45522	0.414712
151	0x3cdfea82	0.027333502
152	0xbe6d9556	-0.23201498
153	0xbc895e26	-0.016768526
154	0xbdaf8ba3	-0.085715555
155	0x3db91341	0.090368755
156	0xbd2a986c	-0.041649267
157	0x3e0d0da5	0.13774736
158	0x3c3a3b3c	0.011366662
159	0xbb8782b1	-0.0041354527
160	0xbd66febb	-0.056395274
161	0xbcc4e8db	-0.024036815
162	0xbd0539fc	-0.032526
163	0xbdaa5e1b	-0.083187304
164	0xbf002b45	-0.50066024
165	0xbd0dccc6	-0.034619115
166	0x3d36ea94	0.044657305
167	0x3c907fb0	0.017639011

encoder.fc_logvar.bias f4 [2]
0	0xbeb2188e	-0.3478436
1	0xbf10db12	-0.56584275

decoder.fc1.weight f4 [84, 2]
0	0x3e2a7636	0.16646656
1	0xbf8ae699	-1.0851623
2	0xbf36640f	-0.7124643
3	0x3ea7bfb7	0.32763454
4	0x3cc7bcd2	0.024382029
5	0x3f2f7c9f	0.6854953
6	0xbf131456	-0.57452905
7	0xbf180bd9	-0.5939308
8	0x3f0016b6	0.50034654
9	0xbe1b1392	-0.15144184
10	0x3ec12600	0.37724304
11	0x3f5b9422	0.8577291
12	0x3ede31e4	0.4339744
13	0x3cd5e2f6	0.0261092
14	0xbdb582fd	-0.08862875
15	0x3cf3a2f7	0.029740794
16	0x3edd46bf	0.43218037
17	0xbf81a230	-1.0127621
18	0xbf3564a9	-0.7085672
19	0xbf44950f	-0.76789945
20	0x3e3364b8	0.1751889
21	0x3f3d4d74	0.7394631
22	0xbe3d1cb9	-0.18467988
23	0x3dff4d83	0.12465956
24	0xbe3f7be1	-0.186996
25	0xbf58afbc	-0.8464315
26	0xbe3c0948	-0.18362916
27	0xbf9199cf	-1.1375064
28	0x3e721128	0.23639357
29	0x3f48665c	0.7828119
30	0x3d9c37dc	0.07627842
31	0xbf426b21	-0.75944716
32	0xbdf8093d	-0.12111137
33	0x3e8a516a	0.2701524
34	0xbf214b69	-0.6300569
35	0x3f1475e6	0.579924
36	0xbe1a5e73	-0.15075092
37	0xbf5887ff	-0.84582514
38	0xbeeb84d1	-0.45999768
39	0x3f1fad55	0.6237386
40	0xbef4e6da	-0.47832376
41	0x3f3e0627	0.7422814
42	0x3e0c117e	0.13678548
43	0x3e4ffd5c	0.20311493
44	0xbf130885	-0.57434875
45	0xbbcd85c4	-0.0062720496
46	0x3ed18d04	0.409279
47	0x3f04bcb9	0.5185047
48	0xbec0098f	-0.37507293
49	0xbf858ecf	-1.0434207
50	0xbf293065	-0.6608947
51	0x3f5e596d	0.868552
52	0xbf27fce6	-0.6562027
53	0xbed2aad7	-0.41145965
54	0xbdeca5ab	-0.11555036
55	0x3cad8d7d	0.021185631
56	0x3f47b31b	0.7800767
57	0x3e085dd7	0.13317047
58	0xbf5eb153	-0.86989325
59	0xbd5fa395	-0.054599363
60	0x3ee222ae	0.44167084
61	0x3db6657d	0.08906076
62	0xbf531890	-0.82459354
63	0x3dfa5f43	0.12225201
64	0x3e1b8e0c	0.15190905
65	0x3da9db70	0.082938075
66	0x3f6c4edb	0.92307824
67	0xbf01d812	-0.5072032
68	0xbd73b812	-0.059501715
69	0x3f1b501b	0.60669106
70	0xbf692c97	-0.91083664
71	0x3dbecdf2	0.09316625
72	0x3e870f42	0.26378828
73	0xbe787262	-0.24262384
74	0xbf39ccb9	-0.72578007
75	0xbf051191	-0.5197993
76	0xbe69dfa4	-0.22839218
77	0xbf2e98cc	-0.682019
78	0xbec98483	-0.3935891
79	0x3f165580	0.5872421
80	0xbf24c305	-0.64360076
81	0x3f82b4a5	1.0211378
82	0xbf053e13	-0.5204784
83	0xbef41485	-0.47671905
84	0xbe28e812	-0.16494778
85	0xbf61236d	-0.8794468
86	0x3e18eadc	0.14933342
87	0x3f11acef	0.569045
88	0x3e84679f	0.25860307
89	0x3f7ec1ed	0.9951466
90	0x3dd6d1ed	0.10489259
91	0x3db82b99	0.089926906
92	0xbecc2240	-0.3986988
93	0xbf182d6d	-0.59444314
94	0x3e65f43d	0.22456451
95	0xbf47796e	-0.7791966
96	0xbf04ad5b	-0.5182702
97	0xbe7e5e76	-0.24840721
98	0x3e6bc953	0.23026018
99	0xbf7472e7	-0.9548783
100	0x3dcdb067	0.10043412
101	0xbf036b30	-0.5133543
102	0x3f50c6a2	0.8155309
103	0x3f3303ef	0.6992788
104	0xbe3ea0fa	-0.18616095
105	0xbf8198b6	-1.0124729
106	0xbe2fa7e1	-0.17153884
107	0xbf3d4380	-0.7393112
108	0x3d75dcc5	0.060024995
109	0x3f1b5318	0.60673666
110	0x3d135e4d	0.035978604
111	0x3f28c7a4	0.6592963
112	0x3caef293	0.021355903
113	0xbf38cb91	-0.7218562
114	0x3f471903	0.7777254
115	0xbc36e6da	-0.011163438
116	0x3f336595	0.70076877
117	0x3f3b8aca	0.7325865
118	0xbeb2402e	-0.3481459
119	0xbf83ee92	-1.0307181
120	0x3e606743	0.21914391
121	0xbebdb742	-0.37053877
122	0xbec7d322	-0.3902827
123	0xbf1ba941	-0.60805136
124	0x3f169f2e	0.5883664
125	0x3f24baab	0.6434733
126	0xbdec254f	-0.115305535
127	0xbed34020	-0.4125986
128	0x3f187013	0.5954601
129	0xbeb37595	-0.35050645
130	0x3f56a9f6	0.8385309
131	0x3e676bce	0.22599718
132	0xbd993e10	-0.074825406
133	0xbf5c12e2	-0.8596631
134	0xbe6d8e5f	-0.23198842
135	0xbf6f43bf	-0.9346275
136	0x3f30417c	0.6884992
137	0x3f0c4536	0.5479311
138	0x3eeee30f	0.46657607
139	0xbed6e1c8	-0.41969132
140	0x3e128a43	0.14310555
141	0xbf13617b	-0.5757062
142	0x3f514d8e	0.81758964
143	0xbf018a9d	-0.5060213
144	0xbdde9961	-0.108690985
145	0x3d0d550f	0.034504946
146	0x3f14b890	0.5809412
147	0x3e1bfe95	0.15233834
148	0x3f819b15	1.0125452
149	0x3cdf5640	0.027262807
150	0xbf1a03c5	-0.60162
151	0x3f234737	0.6378054
152	0x3eb9dab6	0.36299676
153	0xbf4df98e	-0.80458915
154	0x3effec6d	0.49985066
155	0xbf043854	-0.5164845
156	0x3dde390b	0.10850724
157	0x3f465813	0.7747814
158	0xbbafc721	-0.005364314
159	0x3f835448	1.0260096
160	0xbe3391ac	-0.17536038
161	0xbf2f91f0	-0.6858206
162	0x3edbdab4	0.42940295
163	0x3f5acc33	0.85467833
164	0x3f29a911	0.662736
165	0xbe8b486c	-0.2720369
166	0x3e5616df	0.20907162
167	0x3f805d5a	1.0028489

decoder.fc1.bias f4 [84]
0	0xbee98100	-0.45606232
1	0x3df2ceb3	0.11855831
2	0x3ecd50f3	0.40100822
3	0xbe4ed3ac	-0.20197934
4	0x3f4c3670	0.79770565
5	0x3f27f032	0.65600884
6	0x3e017f59	0.12646236
7	0x3ec4fa2c	0.38472116
8	0xbc677d23	-0.014128956
9	0xbf333589	-0.70003563
10	0xbed06736	-0.40703744
11	0x3f52b55b	0.82307976
12	0xbd9cef9c	-0.07662889
13	0xbe50e1e2	-0.20398667
14	0xbe10ca1a	-0.14139596
15	0xbe6da63f	-0.23207949
16	0x3f64811b	0.892595
17	0xbf115c2f	-0.56781286
18	0xbea4b929	-0.32172516
19	0xbf66b001	-0.9011231
20	0x3e016038	0.12634361
21	0x3f70887f	0.93958277
22	0x3f1448f8	0.5792384
23	0x3f3b21ad	0.7309826
24	0xbdeb2171	-0.11480988
25	0xbcd14e33	-0.025549984
26	0x3d9c23ad	0.07623992
27	0x3ef1188f	0.4708905
28	0xbf31844a	-0.6934248
29	0xbdf794cd	-0.12088928
30	0x3f257ec3	0.6464655
31	0xbf1289e5	-0.5724166
32	0x3f34b615	0.70590335
33	0xbe09a00e	-0.13439962
34	0xbe8ad538	-0.27115798
35	0xbea0d83c	-0.31414974
36	0x3f15bdcf	0.5849275
37	0xbdfbd7cf	-0.122970216
38	0x3f5351e9	0.8254686
39	0xbee6fb16	-0.45113438
40	0xbedd754a	-0.43253547
41	0x3ece385f	0.40277383
42	0xbe6339ae	-0.22189972
43	0xbdf5f17e	-0.120089516
44	0xbe906184	-0.281994
45	0x3f51fa75	0.8202279
46	0x3f5e45e3	0.8682539
47	0xbeb9e7ab	-0.3630956
48	0xbeb28166	-0.34864348
49	0xbf3be45f	-0.7339534
50	0x3ee34e7c	0.44395816
51	0x3ec37c8e	0.38180965
52	0xbe8e759a	-0.27824098
53	0x3e75fce8	0.24022257
54	0xbc4c06f3	-0.012452829
55	0x3ccdee79	0.025138127
56	0x3ed41aee	0.41426796
57	0x3f09b304	0.5378878
58	0xbd81722f	-0.06320607
59	0xbedf60a6	-0.43628424
60	0x3f5b307b	0.8562085
61	0x3f029655	0.5101064
62	0xbeba730b	-0.36415896
63	0x3efe37b4	0.49651873
64	0x3f202e3e	0.6257056
65	0x3d3c2d88	0.04594186
66	0xbe32af47	-0.17449676
67	0xbebed44f	-0.37271354
68	0xbf00ac23	-0.5026266
69	0x3ed32f2a	0.4124692
70	0x3ee0c5d1	0.43900922
71	0x3d7e3af1	0.06206793
72	0x3ef7e2a8	0.48415112
73	0xbd474641	-0.048650984
74	0xbecd1fd7	-0.40063354
75	0x3f452998	0.7701659
76	0xbf5d9407	-0.86553997
77	0x3f0b2b15	0.5436261
78	0x3ea15fbc	0.31518352
79	0xbf0a08fa	-0.5391995
80	0x3f5c70ac	0.86109424
81	0xbe295451	-0.1653607
82	0x3f03de8b	0.5151145
83	0xbecc75ee	-0.39933723
